…
  (0): InstanceNorm2d(8, eps=1e-05, momentum=0.1, affine=False, track_running_stats=False)
  (1): Attention_ConvNN_Attn_Branching(
    (branch1): Sequential(
      (0): Attention2d(
        (shuffle_layer): PixelShuffle(upscale_factor=2)
        (unshuffle_layer): PixelUnshuffle(downscale_factor=2)
        (Attention1d): Attention1d(
          (shuffle_layer): PixelShuffle1D()
          (unshuffle_layer): PixelUnshuffle1D()
          (multi_head_attention): MultiheadAttention(
            (out_proj): NonDynamicallyQuantizableLinear(in_features=16, out_features=16, bias=True)
          )
          (conv1x1): Conv1d(12, 16, kernel_size=(1,), stride=(1,))
        )
        (flatten): Flatten(start_dim=2, end_dim=-1)
        (pointwise_conv): Conv2d(4, 2, kernel_size=(1, 1), stride=(1, 1))
      )
      (1): ReLU()
    )
    (branch2): Sequential(
      (0): Conv2d_NN_Attn(
        (shuffle_layer): PixelShuffle(upscale_factor=2)
        (unshuffle_layer): PixelUnshuffle(downscale_factor=2)
        (conv1d_layer): Conv1d(12, 16, kernel_size=(9,), stride=(9,))
        (flatten): Flatten(start_dim=2, end_dim=-1)
        (w_q): Linear(in_features=64, out_features=64, bias=False)
        (w_k): Linear(in_features=256, out_features=256, bias=False)
        (w_v): Linear(in_features=256, out_features=256, bias=False)
        (w_o): Linear(in_features=256, out_features=256, bias=False)
        (pointwise_conv): Conv2d(4, 2, kernel_size=(1, 1), stride=(1, 1))
      )
      (1): ReLU()
    )
  )
  (2): ReLU(inplace=True)
  (3): InstanceNorm2d(16, eps=1e-05, momentum=0.1, affine=False, track_running_stats=False)
  (4): Attention_ConvNN_Attn_Branching(
    (branch1): Sequential(
      (0): Attention2d(
        (shuffle_layer): PixelShuffle(upscale_factor=2)
        (unshuffle_layer): PixelUnshuffle(downscale_factor=2)
        (Attention1d): Attention1d(
          (shuffle_layer): PixelShuffle1D()
          (unshuffle_layer): PixelUnshuffle1D()
          (multi_head_attention): MultiheadAttention(
            (out_proj): NonDynamicallyQuantizableLinear(in_features=32, out_features=32, bias=True)
          )
          (conv1x1): Conv1d(32, 32, kernel_size=(1,), stride=(1,))
        )
        (flatten): Flatten(start_dim=2, end_dim=-1)
        (pointwise_conv): Conv2d(8, 6, kernel_size=(1, 1), stride=(1, 1))
      )
      (1): ReLU()
    )
    (branch2): Sequential(
      (0): Conv2d_NN_Attn(
        (shuffle_layer): PixelShuffle(upscale_factor=2)
        (unshuffle_layer): PixelUnshuffle(downscale_factor=2)
        (conv1d_layer): Conv1d(32, 32, kernel_size=(9,), stride=(9,))
        (flatten): Flatten(start_dim=2, end_dim=-1)
        (w_q): Linear(in_features=64, out_features=64, bias=False)
        (w_k): Linear(in_features=256, out_features=256, bias=False)
        (w_v): Linear(in_features=256, out_features=256, bias=False)
        (w_o): Linear(in_features=256, out_features=256, bias=False)
        (pointwise_conv): Conv2d(8, 6, kernel_size=(1, 1), stride=(1, 1))
      )
      (1): ReLU()
    )
  )
  (5): ReLU(inplace=True)
  (6): InstanceNorm2d(32, eps=1e-05, momentum=0.1, affine=False, track_running_stats=False)
  (7): Attention_ConvNN_Attn_Branching(
    (branch1): Sequential(
      (0): Attention2d(
        (shuffle_layer): PixelShuffle(upscale_factor=2)
        (unshuffle_layer): PixelUnshuffle(downscale_factor=2)
        (Attention1d): Attention1d(
          (shuffle_layer): PixelShuffle1D()
          (unshuffle_layer): PixelUnshuffle1D()
          (multi_head_attention): MultiheadAttention(
            (out_proj): NonDynamicallyQuantizableLinear(in_features=64, out_features=64, bias=True)
          )
          (conv1x1): Conv1d(64, 64, kernel_size=(1,), stride=(1,))
        )
        (flatten): Flatten(start_dim=2, end_dim=-1)
        (pointwise_conv): Conv2d(16, 14, kernel_size=(1, 1), stride=(1, 1))
      )
      (1): ReLU()
    )
    (branch2): Sequential(
      (0): Conv2d_NN_Attn(
        (shuffle_layer): PixelShuffle(upscale_factor=2)
        (unshuffle_layer): PixelUnshuffle(downscale_factor=2)
        (conv1d_layer): Conv1d(64, 64, kernel_size=(9,), stride=(9,))
        (flatten): Flatten(start_dim=2, end_dim=-1)
        (w_q): Linear(in_features=64, out_features=64, bias=False)
        (w_k): Linear(in_features=256, out_features=256, bias=False)
        (w_v): Linear(in_features=256, out_features=256, bias=False)
        (w_o): Linear(in_features=256, out_features=256, bias=False)
        (pointwise_conv): Conv2d(16, 14, kernel_size=(1, 1), stride=(1, 1))
      )
      (1): ReLU()
    )
  )
  (8): ReLU(inplace=True)
), 'pool': AdaptiveAvgPool2d(output_size=(1, 1)), 'flatten': Flatten(start_dim=1, end_dim=-1), 'classifier': Sequential(
  (0): Dropout(p=0.1, inplace=False)
  (1): Linear(in_features=32, out_features=10, bias=True)
)})
args: Namespace(layer='Attention/ConvNN_Attn', num_layers=3, channels=[8, 16, 32], K=9, kernel_size=3, sampling_type='random', num_samples=64, sample_padding=0, num_heads=4, shuffle_pattern='BA', shuffle_scale=2, magnitude_type='similarity', coordinate_encoding=False, dataset='cifar10', data_path='./Data', batch_size=64, num_epochs=50, use_amp=False,
…
